…
Average actions of items: 23.24642711310739
The number of inters: 113861
The sparsity of the dataset: 99.82260966283076%
Remain Fields: ['user_id', 'item_id_list', 'item_id', 'item_length']
Mon 28 Oct 2024 00:56:40 INFO  [Training]: train_batch_size = [2048] train_neg_sample_args: [{'distribution': 'none', 'sample_num': 'none', 'alpha': 'none', 'dynamic': False, 'candidate_num': 0}]
Mon 28 Oct 2024 00:56:40 INFO  [Evaluation]: eval_batch_size = [2048] eval_args: [{'split': {'LS': 'valid_and_test'}, 'order': 'TO', 'group_by': 'user', 'mode': {'valid': 'full', 'test': 'full'}}]
Mon 28 Oct 2024 00:56:40 INFO  SASRec(
  (item_embedding): Embedding(4899, 30, padding_idx=0)
  (position_embedding): Embedding(50, 30)
  (trm_encoder): TransformerEncoder(
    (layer): ModuleList(
      (0-1): 2 x TransformerLayer(
        (multi_head_attention): MultiHeadAttention(
          (query): Linear(in_features=30, out_features=30, bias=True)
          (key): Linear(in_features=30, out_features=30, bias=True)
          (value): Linear(in_features=30, out_features=30, bias=True)
          (softmax): Softmax(dim=-1)
          (attn_dropout): Dropout(p=0.5, inplace=False)
          (dense): Linear(in_features=30, out_features=30, bias=True)
          (LayerNorm): LayerNorm((30,), eps=1e-12, elementwise_affine=True)
          (out_dropout): Dropout(p=0.5, inplace=False)
        )
        (feed_forward): FeedForward(
          (dense_1): Linear(in_features=30, out_features=256, bias=True)
          (dense_2): Linear(in_features=256, out_features=30, bias=True)
          (LayerNorm): LayerNorm((30,), eps=1e-12, elementwise_affine=True)
          (dropout): Dropout(p=0.5, inplace=False)
        )
      )
    )
  )
  (LayerNorm): LayerNorm((30,), eps=1e-12, elementwise_affine=True)
  (dropout): Dropout(p=0.5, inplace=False)
  (loss_fct): CrossEntropyLoss()
)
Trainable parameters: 187502
Mon 28 Oct 2024 00:56:40 INFO  FLOPs: 1943830.0
Mon 28 Oct 2024 00:56:47 INFO  epoch 0 training [time: 5.96s, train loss: 360.3195]
Mon 28 Oct 2024 00:56:47 INFO  epoch 0 evaluating [time: 0.36s, valid_score: 0.012500]
Mon 28 Oct 2024 00:56:47 INFO  valid result: 
…
